{"weightsManifest": [{"paths": ["group1-shard1of1"], "weights": [{"dtype": "float32", "name": "conv2d_1/kernel", "shape": [3, 3, 1, 32]}, {"dtype": "float32", "name": "conv2d_1/bias", "shape": [32]}]}, {"paths": ["group2-shard1of1"], "weights": [{"dtype": "float32", "name": "conv2d_2/kernel", "shape": [3, 3, 32, 64]}, {"dtype": "float32", "name": "conv2d_2/bias", "shape": [64]}]}, {"paths": ["group3-shard1of2", "group3-shard2of2"], "weights": [{"dtype": "float32", "name": "dense_1/kernel", "shape": [9216, 128]}, {"dtype": "float32", "name": "dense_1/bias", "shape": [128]}]}, {"paths": ["group4-shard1of1"], "weights": [{"dtype": "float32", "name": "dense_2/kernel", "shape": [128, 10]}, {"dtype": "float32", "name": "dense_2/bias", "shape": [10]}]}], "modelTopology": {"model_config": {"class_name": "Sequential", "config": [{"class_name": "Conv2D", "config": {"kernel_initializer": {"class_name": "VarianceScaling", "config": {"scale": 1.0, "mode": "fan_avg", "distribution": "uniform", "seed": null}}, "data_format": "channels_last", "trainable": true, "bias_initializer": {"class_name": "Zeros", "config": {}}, "kernel_size": [3, 3], "activity_regularizer": null, "bias_regularizer": null, "batch_input_shape": [null, 28, 28, 1], "kernel_regularizer": null, "dilation_rate": [1, 1], "name": "conv2d_1", "bias_constraint": null, "padding": "valid", "strides": [1, 1], "dtype": "float32", "filters": 32, "kernel_constraint": null, "use_bias": true, "activation": "relu"}}, {"class_name": "Conv2D", "config": {"kernel_initializer": {"class_name": "VarianceScaling", "config": {"scale": 1.0, "mode": "fan_avg", "distribution": "uniform", "seed": null}}, "data_format": "channels_last", "trainable": true, "bias_initializer": {"class_name": "Zeros", "config": {}}, "activity_regularizer": null, "bias_regularizer": null, "kernel_size": [3, 3], "kernel_regularizer": null, "dilation_rate": [1, 1], "name": "conv2d_2", "bias_constraint": null, "padding": "valid", "activation": "relu", "filters": 64, "kernel_constraint": null, "use_bias": true, "strides": [1, 1]}}, {"class_name": "MaxPooling2D", "config": {"data_format": "channels_last", "trainable": true, "padding": "valid", "pool_size": [2, 2], "name": "max_pooling2d_1", "strides": [2, 2]}}, {"class_name": "Dropout", "config": {"trainable": true, "name": "dropout_1", "rate": 0.25}}, {"class_name": "Flatten", "config": {"trainable": true, "name": "flatten_1"}}, {"class_name": "Dense", "config": {"kernel_initializer": {"class_name": "VarianceScaling", "config": {"scale": 1.0, "mode": "fan_avg", "distribution": "uniform", "seed": null}}, "kernel_regularizer": null, "trainable": true, "bias_initializer": {"class_name": "Zeros", "config": {}}, "units": 128, "bias_regularizer": null, "use_bias": true, "name": "dense_1", "bias_constraint": null, "activity_regularizer": null, "kernel_constraint": null, "activation": "relu"}}, {"class_name": "Dropout", "config": {"trainable": true, "name": "dropout_2", "rate": 0.5}}, {"class_name": "Dense", "config": {"kernel_initializer": {"class_name": "VarianceScaling", "config": {"scale": 1.0, "mode": "fan_avg", "distribution": "uniform", "seed": null}}, "kernel_regularizer": null, "trainable": true, "bias_initializer": {"class_name": "Zeros", "config": {}}, "units": 10, "bias_regularizer": null, "use_bias": true, "name": "dense_2", "bias_constraint": null, "activity_regularizer": null, "kernel_constraint": null, "activation": "softmax"}}]}, "backend": "tensorflow", "keras_version": "2.0.4", "training_config": {"loss": "categorical_crossentropy", "optimizer_config": {"class_name": "Adadelta", "config": {"epsilon": 1e-08, "lr": 1.0, "decay": 0.0, "rho": 0.95}}, "metrics": ["accuracy"], "sample_weight_mode": null, "loss_weights": null}}}